pileup_calling_model.tflite (tflite, 24992 bytes, 9 tensors)

dense/bias f4 [6]
00000000: d41c 6ac0 4fa3 abbf 2006 95bf 38cd 81bf
00000010: 0116 323f 67ec 803f
-3.6580095 -1.3409213 -1.1642494 -1.0140753 0.69564825 1.0072144

conv1d_1/bias f4 [32]
00000000: 8cbe 4d3f 6e75 ea3f 8e8b b8be d675 63bf
00000010: e2b9 b4be bdc7 783f d810 c6be 7fbc 5e3f
00000020: 5d10 d4bd eed5 94bf 20e1 db3e 9927 3b3f
00000030: 0509 3d3d 0c02 813e ab80 f6be 21e5 37bf
00000040: e752 bbbf 6ac8 81be 2db2 40bf b817 093f
00000050: e4ee e2be c28f 94be e241 debd 5902 83bf
00000060: f84a a93f 132a ee3d ee06 b43e cb13 24bf
00000070: b244 a2bd b58b f9bf 7c66 fd3d 43fd 4e3f
0.80368876 1.8317087 -0.36043972 -0.8885168 -0.35298067 0.97179776 -0.38684726 0.8700637
-0.103546835 -1.1627786 0.42945194 0.73107296 0.04615118 0.25196874 -0.4814504 -0.71834
-1.4634675 -0.25348216 -0.75271875 0.53551817 -0.44322884 -0.29015929 -0.1085241 -1.0235091
1.3226004 0.11629119 0.35161537 -0.640927 -0.07923259 -1.949576 0.12373063 0.80855197

conv1d/bias f4 [32]
00000000: 6e8f fd3f 9135 cc3f e3f7 9a3f 30e6 44bf
00000010: 88ab 1dc0 dcfe 17bf 00b6 ab3f 3df2 acbf
00000020: 7991 b73f 314d 52c0 8347 02c0 cdb3 fabf
00000030: f9e4 c1bf a195 fbbf 619c c2bf 3a8d afbf
00000040: 9718 fcbf 06cd 11c0 aea0 e83f 0a1c 74bf
00000050: eff6 bfbe 289b fe3e 0e01 2abf 8902 83bf
00000060: 7525 d93f 723e 9f3f 28ac dfbf 3295 bd3f
00000070: 3ee1 e73e 7e49 d8bf 7ef8 443f daa4 2c40
1.9809396 1.5953847 1.2106899 -0.7691374 -2.4635944 -0.5937326 1.3414917 -1.3511425
1.434127 -3.2859614 -2.0356147 -1.9586121 -1.5148002 -1.9655038 -1.5203973 -1.3714974
-1.9695004 -2.2781386 1.8174036 -0.95355284 -0.37493083 0.4972775 -0.6640786 -1.0235149
1.6964556 1.2440932 -1.7474413 1.4811156 0.45289034 -1.6897428 0.7694167 2.6975617

sequential/batch_normalization/batchnorm/mul;sequential/batch_normalization/batchnorm/mul f4 [32]
00000000: 3449 1740 d169 a440 3127 2640 4948 613f
00000010: 57e7 623f e390 2440 a279 4a40 0c5d 8b40
00000020: 72f2 e440 5cea 2e40 26fb b43f 3505 a740
00000030: c58d ae3f a22c 5540 5d71 c140 e00e 0b40
00000040: 6d95 8040 6618 8840 1ae3 5840 937a 3440
00000050: b6d8 6b40 be0e 3f40 55b2 0840 997c f83f
00000060: 66a0 df40 7c3a ab41 999b 8b40 915e 9040
00000070: f60a 1840 cb22 4340 caa2 1041 816b 2c40
2.363843 5.137917 2.596142 0.88000923 0.88634247 2.5713432 3.1636739 4.3551083
7.1545954 2.7330542 1.4139144 5.2193856 1.3637015 3.3308492 6.0450883 2.172783
4.0182405 4.2529783 3.3888612 2.8199813 3.685102 2.9852748 2.1358845 1.9413024
6.98833 21.403557 4.362744 4.5115438 2.375669 3.0489986 9.039743 2.6940615

sequential/batch_normalization/batchnorm/sub;sequential/batch_normalization/batchnorm/sub f4 [32]
00000000: a07f 84bf 4cf9 91c0 9e15 f3bf 88a5 a6bd
00000010: 520d 98be 8acc cbbf 5b80 b8bf 546e 4ec0
00000020: abd1 a2be fc3d f5bd ba98 68be f48a 93c0
00000030: 5e87 82be ff56 2bc0 a4e4 c8be 8f13 bfbf
00000040: d4f0 09bf 58b2 18bf 92a9 78bf 1b63 09c0
00000050: bd35 32c0 561c 68be af36 48bf a44f 11be
00000060: be88 d1c0 9735 a8c1 ccc2 73c0 22b1 25bf
00000070: 3581 cbbf cc89 27be 827c bcbe b1b3 96bf
-1.0351448 -4.5616817 -1.8990972 -0.08137041 -0.29697663 -1.5921795 -1.4414171 -3.225484
-0.3180059 -0.11974713 -0.2271451 -4.610712 -0.25493902 -2.6771848 -0.3923694 -1.4927844
-0.538831 -0.5964713 -0.97133744 -2.146674 -2.78453 -0.2266706 -0.7820844 -0.14190537
-6.547942 -21.026167 -3.8087645 -0.6472341 -1.5898806 -0.16361159 -0.36813742 -1.1773587

sequential/dense/MatMul;sequential/dense/MatMul f4 [6, 128]
00000000: 93ac 97be ed75 a4be 2552 e23d e245 f3bc
00000010: d8cc 913c 9cad 2dbd f079 853e 248f c83e
00000020: 29b6 6f3e 0b42 dbbd 051b 60bd 2190 8b3e
00000030: bfb0 7dbd 5e1f 4e3e 9b66 56be df14 c73d
00000040: 19cf bf3d 2156 cd3e 46bd f0be fea4 f3be
00000050: 629a 4c3e aaba 83bd da48 c0be 6ec9 253d
00000060: 0997 a83e 39a4 3a3b f6ba 743d ad51 da3d
00000070: 9abb 8dbd 4edb 00be 44cf 903e 2618 9cbe
00000080: 16ff 35bf e992 06bf e616 573e 1abe a4bd
00000090: 6ecb 4b3d c0dd 52be 71a9 fa3e fe05 813f
000000a0: c004 9d3e 9277 38be 3b01 a5bb ab41 c23e
000000b0: 86cc b4bd e8b7 573f 77e9 a7be ea0c cbbe
000000c0: 656f 643e a9c2 903f 73eb 8bbf 666d 8fbf
000000d0: 8621 313f 6287 a3bc 3148 80bf 831f 27be
000000e0: 81d8 173f 1daf 843e bbac 9e3e bcd3 673f
000000f0: 9271 553e 46c3 fc3c 4327 e83e 5b78 45bf
00000100: d95b 27bf 9893 4bbf 77a4 bd3e 52c8 ad3e
00000110: 04c1 093f ab4e e0be 21c2 7c3e 3c8a 143f
00000120: 50ab 99bf c454 c3bd e5fa 3bbe 9f0c b83f
00000130: 361e d2bd ac19 153d 5414 8dbf 75eb 5abe
00000140: a3e3 813f 1af2 e2be 6bc7 28bf 2df4 01bf
00000150: 4b72 2d3f cb91 a3bc 5d4e 35bf 7a5e 05be
00000160: df48 ab3f 2559 a03f c15f d33e 67b4 7ebe
00000170: de88 8a3e b502 8f3e 7aa6 c4be 8db3 0cbf
00000180: 971a 163f 7736 a3bf ac51 fdbe 7528 a2bd
00000190: 091a 963d c9da 213f 4425 1fbe 43e3 333f
000001a0: 9220 1bbe d0a5 adbe 9474 24bd 0023 883f
000001b0: 47d4 10bd f46d 22bf b2ed 043e 9f5f ac3e
000001c0: 6d89 32be c0a7 14bf e166 e43e bd51 76bf
000001d0: 109a 803f 95aa 16bd cc7b 263f 3d33 9abd
000001e0: 5a01 7c3f 6765 a13e 3468 42bf c2ce 2dbf
000001f0: 69fe 003e a78c a5bd 36a6 0a3e 4f78 2d3f
00000200: 6931 063e c7f1 bf3e 3036 d1bd 1287 623b
00000210: 6770 5ebd 2e1e cdbc 78ac a3be 3c37 c5be
00000220: 2892 17be 1778 a63d f16c b2bb 85c1 1dbe
00000230: 9e46 d4bb 62e0 ddbe d175 063c 9c5d 05bd
00000240: 214c 48be 5956 61be a681 f13e 4a9b a63e
00000250: a835 3bbe 76d7 93bd dd37 9b3e 09ca 6dbd
00000260: 939e 93be 3e3f 04be 8ea0 38be 3262 2ebe
00000270: c49c 0d3c 5608 ef3d a161 83be 8b68 2e3e
00000280: 7ce5 0e3f 09ae 163f 8301 dbbe f2d6 2b3d
00000290: 39d6 f8bd 05af 443e 16ee 33bf 1fae 57bf
000002a0: 99d8 97be 7e83 a83d 30ae 15bc 7eee a3be
000002b0: 9b41 153d 0e37 75bf 7048 303e 131f 8fbb
000002c0: 239b 91be 6a11 6abf b920 633f e4b5 623f
000002d0: 8b34 15bf c9dc 56bd 3f45 733f eb13 8d3d
000002e0: af46 c9be 9e3b ccbe 860d 00bf 18fd 5abf
000002f0: af20 a03e 5f0b b6bd 52da ebbe 5b43 053f
00000300: 3988 933e fe28 893f a41c 3abf 347b 86be
00000310: 3cc9 74bb c4a0 0a3f c431 14bf 0b2b 06bf
00000320: 332b 973f b2b1 a5be 01f5 8d3e fef6 4fbf
00000330: dd80 8c3e 8ac4 d7be 7eb1 693f d4f4 f0be
00000340: 0bd0 aebf c789 0abf 11e6 05be 6d2c 3c3e
00000350: 553b 833e 8358 583e 12f3 bfbe 107a e93e
00000360: cec3 08bf fbbe efbd 164e 01bf b31c 2abf
00000370: 3af6 c13c 8bed 5bbe e426 723e f21e 813e
00000380: ecb0 19bf fab7 5e3f beb1 183f 33cb 97bb
00000390: 2e6f 21be f8fa bcbe 1888 813e 3b13 63bf
000003a0: 3634 0dbd 8056 1a3e 3b64 ad3d 0cef 57bf
000003b0: ef44 a53d 00c5 873e 9cb8 f8be c40f d7bd
000003c0: 64eb cd3d 9dd7 e73e e39f b2be 0ee7 ef3e
000003d0: 8c64 50bf 0024 7a3d 8e63 27bf 80dd 41bc
000003e0: 5dfc 68bf 46da ccbe 58d3 223f fc19 043f
000003f0: d902 fbbe ff30 d03c 0716 32be 7f2f 50bf
-0.2962385 -0.3212122 0.11050824 -0.029696409 0.017797872 -0.042401895 0.26069593 0.39171708
0.23409332 -0.10705956 -0.054713268 0.272584 -0.061936136 0.20129153 -0.20937578 0.09720778
0.093656726 0.40104774 -0.47019404 -0.47586817 0.19980767 -0.06432088 -0.3755558 0.0404753
0.3292773 0.0028479232 0.059748612 0.1066011 -0.06920548 -0.12583658 0.2828313 -0.30487174
-0.71092355 -0.5256792 0.21004829 -0.080440715 0.049754553 -0.20592403 0.489574 1.0079954
0.30667686 -0.18014362 -0.005035547 0.37940726 -0.08828072 0.84264994 -0.32795307 -0.3965829
0.22308119 1.1309406 -1.0931228 -1.1205261 0.6919178 -0.019962016 -1.0022031 -0.16320615
0.59314734 0.2591485 0.30991158 0.90557456 0.20844105 0.030854832 0.45342454 -0.7713677
-0.65374523 -0.79522085 0.3703954 0.33941895 0.53810143 -0.4381002 0.2468343 0.5802343
-1.2005405 -0.09537652 -0.18357427 1.4378852 -0.102596685 0.036401436 -1.1021829 -0.21378882
1.0147594 -0.44325334 -0.6592929 -0.5076321 0.6775252 -0.01996698 -0.708227 -0.13024321
1.3381613 1.2527205 0.41283992 -0.24873506 0.27057546 0.27931753 -0.38408262 -0.5496147
0.5863432 -1.2750996 -0.49476373 -0.07917873 0.073291846 0.63224465 -0.1554156 0.7026865
-0.15149143 -0.33915567 -0.04015024 1.0635681 -0.035358693 -0.63449025 0.12981299 0.33666703
-0.17435236 -0.58068466 0.4460974 -0.9621847 1.0047016 -0.036783773 0.6503265 -0.07529304
0.9843956 0.31522676 -0.7594025 -0.6789361 0.1259705 -0.08083468 0.13539967 0.677617
0.13104786 0.3748915 -0.102154136 0.0034565371 -0.054306414 -0.025038805 -0.3196752 -0.38518703
-0.14801848 0.08128374 -0.0054451157 -0.15405853 -0.006478145 -0.43335253 0.008206801 -0.032559976
-0.19560291 -0.22005595 0.47169226 0.3254035 -0.18282187 -0.0721883 0.30316058 -0.058054004
-0.2883192 -0.1291475 -0.18029997 -0.17029646 0.008643333 0.11671512 -0.25660422 0.17032067
0.55818915 0.58859307 -0.4277459 0.041953035 -0.12150235 0.1920739 -0.70285165 -0.8425006
-0.29657438 0.08228205 -0.009135768 -0.32017893 0.03643952 -0.9578713 0.17215133 -0.004367718
-0.28438672 -0.9143282 0.88721806 0.88558793 -0.582833 -0.05245665 0.95027536 0.06888565
-0.3931174 -0.39889234 -0.50020635 -0.8554244 0.31274936 -0.088888876 -0.46065003 0.520559
0.28814867 1.0715635 -0.7269995 -0.26265872 -0.003735139 0.5415156 -0.57888436 -0.5240943
1.1810058 -0.32362133 0.27725986 -0.81236255 0.27442065 -0.42142135 0.91286457 -0.4706179
-1.365724 -0.5411648 -0.13076045 0.18376322 0.25631204 0.21127515 -0.37490135 0.4560094
-0.53423774 -0.117063485 -0.50509775 -0.6645004 0.02367698 -0.21477334 0.23647648 0.25218922
-0.60035586 0.86999476 0.59646213 -0.0046323775 -0.15765068 -0.36910224 0.25299144 -0.8870122
-0.03447362 0.1507206 0.08466383 -0.8434913 0.08069789 0.26517487 -0.48578346 -0.10501054
0.10054663 0.45281687 -0.3488761 0.46855968 -0.8140342 0.06106949 -0.65386283 -0.011832595
-0.91010076 -0.4001028 0.63603735 0.5160215 -0.4902561 0.025413988 -0.17391215 -0.81322473

sequential/dense_1/MatMul;sequential/dense_1/MatMul f4 [1, 6]
00000000: b66c 66bf f9d6 8b3f 17dc 0040 9674 41c0
00000010: c3c1 a4bf 79ff 77bf
-0.9000963 1.092498 2.0134332 -3.0227408 -1.2871631 -0.96874195

sequential/conv1d/conv1d;sequential/conv1d/conv1d f4 [32, 1, 2, 21]
00000000: ee36 8840 9398 813f 3cb5 b23e da31 da3e
00000010: 9da5 a1be c02e 99be 8f5b 03be dc9d febe
00000020: df22 93be 0726 3ebe a4e8 7abe e2d7 03bf
00000030: 5288 21bf a6bc f43d 6be7 07bf 48b4 7bbe
00000040: be88 20bd acff 66be a6b0 34bc fd41 aebe
00000050: 0a95 7a3f b419 853d a1cd 4140 2f9b 3b40
00000060: 85f7 1240 706f e13f c464 f13f 90e1 e83f
00000070: 5057 903f f5dc 0a3f 65d2 793e cfe9 393d
00000080: 51e4 843c 13ec e5be 4708 08bf b3d5 5dbf
00000090: fba0 36bf a237 95bf bfdb 9fbf fc88 93bf
000000a0: 9e24 5bbf d686 543f 4994 1f40 3f1e 5c40
000000b0: c305 1a40 a663 e03f 550b a33f 1655 a93f
000000c0: 486e 203f 060d 2b3e e6f4 a83e ef9c 393d
000000d0: c9b2 033c 70ee 0cbe 20f1 f3be 661c c1bd
000000e0: 1c9c 7cbe 4bb5 e3be f314 14bf 00a5 edbe
000000f0: e5b8 43bf 325b b9be a3ba ebbd d630 2341
00000100: 20ca 8240 42d9 1340 1c31 ee3f 9c69 8a3f
00000110: 1e01 973f 6ebb 9f3e be38 163e 14f3 86be
00000120: db92 1cbe 3d39 e2be d182 28bf 8345 6bbf
00000130: 29ae 21bf 51f5 51bf 2826 85bf a421 5bbf
00000140: 7269 adbf 53fa aabf d59f a4bf a36d dbbe
00000150: 3258 cebe 4859 51be c3e7 71bd a2be 3f3d
00000160: cf97 153d b91e 5ebd f73c 49be 1555 c9be
00000170: a5e1 0dbe dc61 5cbe 62c7 30be 79d5 70bd
00000180: 0409 0dbe 482a 20be 5f0f 363e c292 2a3e
00000190: ae7f a9bc 7e5c aa3e 11f1 e03d a30d 003f
000001a0: 009d e2be d509 aabf 0e17 b2bf ebe7 1ebf
000001b0: cfd2 3cbf 231f 02bf cab0 f0be aadf 1bbf
000001c0: a9ec 00bf d76a b4bc 86da 9fbe ca82 8cbb
000001d0: a80e 3f3e 36e6 073f fad3 1c3f 45b6 8e3f
000001e0: a6cb c93f ba93 e53f 6ecb 2e40 19f1 8d40
000001f0: a818 0541 7ff3 b7be e550 253e 4893 ed3e
00000200: 07b6 4e3f 40cb 893f b153 953f 56b2 483f
00000210: 5d02 663f ce5a 133f 8cbb 923e d11c 96be
00000220: ce8e 97bd 6112 3dbe 517c a8be d347 4dbf
00000230: 9a68 07bf b0bd 66bf d121 0fc0 64d2 2fc0
00000240: 102a 0ac0 e58e 88bf 1ca1 80bf 1eed c8be
00000250: 3d45 e2bd 5ee1 a8be f968 bdbd f703 43be
00000260: d1e6 54bd c617 323e 7fa2 d3bd 97ee f1bd
00000270: 8907 8b3d 9e94 973e e2d3 293e b77d 95bd
00000280: 3568 95be 3e31 eebe 2eb0 5fbf 267e 70bf
00000290: 56e6 5ebf 80d4 04c0 b9f3 0fc0 1107 993f
000002a0: 91ac efc0 b214 07c0 62da 43bf 5113 cd3d
000002b0: fc27 c43e 00d7 a93e db40 643f 8e64 5a3f
000002c0: 3d6a 753f 8e7f 9a3f e21e 8f3f 01c3 8f3f
000002d0: 3e61 483f 5025 7e3f 15a5 533f 860c 883f
000002e0: bd8c 573f f093 393f c3e0 b33e 1807 b5bf
000002f0: 0cd8 5dc0 d805 623f 640f 093e b3c6 453e
00000300: fea4 1b3c f622 6dbc 4d23 193e 2d80 e83d
00000310: e719 babe 546b 0cbe 3ab5 b93e 9f98 bf3c
00000320: f7d0 843d 339d a33e 1c0e 35be 4490 f6bd
00000330: e3df 9cbd 938d 923e 741c 083d b8d1 7abd
00000340: e9ef 8ebe 2236 86c0 c12a d0bd 8ac9 f13e
00000350: 2b6b 223f edf2 1f3f e263 0f3f 445e 063f
00000360: 565b c33e 84d2 fe3e 186c a03e 3fff b43e
00000370: cfdc c03e 9cb5 293d 8fbb 623e e3b1 cdbe
00000380: dea0 d2be d612 d1be 4bee 4fbf 2188 8ebf
00000390: ad15 a8bf 6ada 6abf b824 e53e 3703 2dc0
000003a0: c219 0cc0 cf1e a4bf 0a23 91bf 5d07 34bf
000003b0: ba4a 3dbf d3f9 b9bc 2bca 20bf 3a28 44be
000003c0: 4485 30be 56f0 03bf 03e1 b8bb d475 86be
000003d0: 8cf8 23be e6eb d6bc e908 b6bc b2eb 3e3e
000003e0: 5d6d bebd b394 b63e 9ef7 153e c35c 0bbf
000003f0: 02f7 9d3f 680b 6140 eb80 e23f aff1 2a3f
4.2567053 1.0124687 0.34903896 0.4261616 -0.31571665 -0.2991848 -0.12827896 -0.49729812
-0.28737542 -0.18569194 -0.24502808 -0.51501286 -0.63098633 0.11950044 -0.5308749 -0.2458049
-0.039192908 -0.22558469 -0.011028444 -0.3403472 0.97883666 0.06499043 3.0281756 2.9313467
2.2963574 1.7612133 1.8858876 1.8193836 1.1276646 0.54243404 0.24396665 0.045388993
0.016222151 -0.44906673 -0.5313763 -0.86654204 -0.71339387 -1.1657603 -1.2488936 -1.1526179
-0.8560275 0.83018243 2.4934256 3.439346 2.4066017 1.753041 1.2737833 1.3229091
0.62668276 0.16704187 0.32999343 0.04531568 0.008038231 -0.13762832 -0.476449 -0.09429245
-0.24668926 -0.44474253 -0.57844466 -0.46414948 -0.76454 -0.3620239 -0.115102075 10.199423
4.0871735 2.3101354 1.8608737 1.081348 1.1797216 0.31197685 0.14670083 -0.2635733
-0.15290396 -0.44184294 -0.6582461 -0.9190294 -0.6315637 -0.8201495 -1.0402269 -0.85598207
-1.3547804 -1.3357643 -1.2861277 -0.42857084 -0.40301663 -0.20444214 -0.059058916 0.04681266
0.03652173 -0.05422852 -0.19652162 -0.39322725 -0.13855608 -0.21521705 -0.17263559 -0.058797333
-0.1377297 -0.15641129 0.17779301 0.16657546 -0.020690765 0.3327369 0.1098348 0.5002081
-0.44260406 -1.328425 -1.3913286 -0.6207263 -0.7375917 -0.5082876 -0.4700988 -0.6088816
-0.50361115 -0.022023601 -0.31221408 -0.004288052 0.18657935 0.5308565 0.6126095 1.1149374
1.5765274 1.7935708 2.7311664 4.435681 8.31852 -0.3592796 0.1614414 0.4640143
0.807465 1.0765152 1.1666166 0.7839712 0.89847356 0.5756043 0.28658712 -0.2931886
-0.07400285 -0.18464042 -0.32907346 -0.8018772 -0.52893984 -0.9013319 -2.236439 -2.7472162
-2.1588173 -1.0668608 -1.0049167 -0.39243406 -0.110483624 -0.32984442 -0.092485376 -0.19044481
-0.051977936 0.17391881 -0.10333728 -0.118130855 0.067885466 0.29605573 0.16584733 -0.07299369
-0.29181066 -0.46521944 -0.87378204 -0.9394249 -0.87070215 -2.07547 -2.2492507 1.1955281
-7.489815 -2.1106381 -0.765051 0.1001345 0.38311756 0.33171844 0.8916146 0.85309684
0.9586523 1.2070177 1.11813 1.1231385 0.7827338 0.99275684 0.8267377 1.0628822
0.84199125 0.7249136 0.35132417 -1.414279 -3.4663115 0.88290167 0.13384777 0.19314079
0.009499786 -0.014473667 0.14954872 0.113525726 -0.36347887 -0.13712817 0.36271077 0.023388205
0.064851694 0.3195587 -0.17681164 -0.12039235 -0.076598905 0.28623638 0.03323026 -0.06123516
-0.27917412 -4.194108 -0.10164405 0.47224075 0.63444775 0.6248005 0.56011784 0.5248759
0.3815562 0.49769986 0.3133247 0.35350987 0.37668464 0.04143296 0.2214186 -0.4017478
-0.41138357 -0.40834683 -0.8122298 -1.1135293 -1.3131615 -0.91739523 0.44754577 -2.7033212
-2.1890721 -1.2821902 -1.1338818 -0.70323735 -0.7394215 -0.022702133 -0.62808484 -0.1915597
-0.17238337 -0.515386 -0.005642058 -0.2626177 -0.16012782 -0.026235532 -0.022221046 0.18644598
-0.09298203 0.35660324 0.1464524 -0.5443842 1.2341006 3.5163212 1.7695593 0.6677503

sequential/conv1d_1/conv1d;sequential/conv1d_1/conv1d f4 [32, 1, 2, 32]
00000000: 8c61 55bf 9df9 b23e 430a 5b3e d4aa 8dbd
00000010: f052 b9bd 32f0 9b3d 6a78 0cbf e2d6 1c3e
00000020: bcc1 2fbf 6582 213f dce4 1cbf 80ac 86bf
00000030: a910 d23e a7cc e2bf 6bc9 b0bf 2231 a03e
00000040: f71f c439 97be 193d 9b6a eabb 000e 19bf
00000050: abd4 fbbe 1444 45bf 42da 77bf eb37 81be
00000060: 867a ba3e d6eb c4be 2315 9d3e e82a 953e
00000070: f29a 533e ea97 f8be 71a0 bebe e316 c63d
00000080: 92fd 373f 87d9 e3be 3cb2 93be f2dc 85bd
00000090: 403c 233f 549a 32bf 32e6 36be ad3a 0fbf
000000a0: 8689 b63e dc11 6ebe 7c54 6cbf bae6 7cbd
000000b0: c017 673e 4f6b cabd 4b03 fc3e ba2a 823d
000000c0: 44d4 323d 54a9 88be 2ed4 a13f 8b7c 1e3e
000000d0: 3513 e6bd 0506 44be 53cd 953f f74b 063f
000000e0: a53c f3be fc93 55be 6268 a3bf 1a16 2b3f
000000f0: 2a46 89bd 6410 993d 97e5 dabe bd38 813e
00000100: b622 b8be ab20 62bf 81cb d23d 1d0b 673f
00000110: cea4 b2be d7d2 1d3d 62ed d7be b143 1cbe
00000120: 4b6d 49be 9776 cfbe 0032 a0be 0122 d9bf
00000130: c32b e9be 2f03 a9bf c711 4d3f bc64 903f
00000140: 2318 183f d1e5 843f a4da 633e e339 003f
00000150: 7748 943e ccbc 5b3d c962 043f a296 b4bd
00000160: 54a2 463f 70ac 12bf 5445 e23e f802 b7bc
00000170: bc29 a23e f99b 793f 87a3 c5bb dd4e ca3f
00000180: 85e6 a8be 4e61 40bf 7f37 3e3d 83a9 443f
00000190: fb94 14be 7c97 adbe 10b3 d43e 45fb c53e
000001a0: 2579 063f ac6e 9fbf 14d6 10bf 9f87 94bf
000001b0: a7e3 e33d 7dd7 cdbf 2274 d93e 1984 b33b
000001c0: 8248 413d 45fb 673f 5963 fd3e c448 89be
000001d0: c377 793e feab 20bf fe8b e8bc 85ef 4a3e
000001e0: 399a b13e 8226 b1bc cb92 23be 1f11 423d
000001f0: 04c0 f1bc 39b1 86be 252f 02bd 8d43 b23f
00000200: 78b5 393f b313 303f fe5d 73be 6877 e7be
00000210: 3e87 863e 4514 133f 4c5f 423e ec64 48bf
00000220: f901 13be 38ac 18be 60fd 2cbf d2ad 993c
00000230: a436 e33d f48d 5bbe 19e3 1dbe dcf9 0dbf
00000240: 27e2 203f c26f 223f 6c0f b33c 805e e7bd
00000250: 16ae 003e c12e 873f 0dfb 503e 382a 7ebe
00000260: f6ba 42bf 4bfd 24bf 2342 34bc 5d35 8d3e
00000270: 3a41 15bf 1a9d 4d3e ccc6 103f f6cd 1f3e
00000280: 6740 823e 154b 10bf 9c43 0ebd 7cca 223f
00000290: 94df 19bc a846 3b3e 4431 033f 79f8 143f
000002a0: a7f5 973d 22e4 01bf 702b 4abf a51c 80bf
000002b0: 9be5 80bf a71c bdbe 6d92 33be 6eb8 013f
000002c0: 8d7e 2a3f e722 723f 402d e13e 8832 713e
000002d0: 57e8 e6be ff20 46bf f63a 933f b655 94be
000002e0: 5efb 053e a8cd 8ebf 7a56 71bf b913 703e
000002f0: d9d6 c93e d9b8 853e 0bb4 e2bc 7102 143f
00000300: 5b5d d9bc f4d7 8a3e 7631 3a3f 28fe bfbd
00000310: 5cdf c8bd 9f41 3abe 999d b3be 439e 7bbe
00000320: e7e2 76bd 4e81 db3c ad49 3abe ca5e 483e
00000330: dae6 f7bd 9e77 4b3d 10a2 973c 8165 5a3d
00000340: fe63 083f 1ea5 17be 917e 8abe e1c0 c73e
00000350: 139e 36be 7074 d33e 59b6 673f 996d b4be
00000360: e28d 1ebf 2f71 c93d 39bd 29bf b6b0 37bf
00000370: 356b 7ebd 9280 673f e6ee 6a3f 4541 273e
00000380: a0ba 0bbe a110 d1bd ee82 a43f f133 a33e
00000390: 9af1 78bd b338 09bf fc8b 0dbf caab fe3e
000003a0: e5e2 08bf 9ec9 e4bd 156c c1bf f130 49bf
000003b0: 2bfe 9fbe 3301 bdbf 8ca6 f8bd 0240 81bf
000003c0: 11fd 063f 71a0 7dbf d60c e4be 9b73 8a3e
000003d0: 353a 03bf 2690 743f bd60 553f 458e 283e
000003e0: 6d12 5dbd 572e 28bf 0f02 5abf bf87 dabf
000003f0: e4c8 c03e d284 17bf 0e05 c33f e6fd 273e
-0.8335197 0.34956065 0.21390633 -0.069173485 -0.09049022 0.07614173 -0.5487124 0.15316346
-0.6865499 0.6308959 -0.6128671 -1.0521393 0.41028336 -1.7718705 -1.3811468 0.31287485
0.0003740785 0.037535276 -0.0071538216 -0.5978699 -0.4918569 -0.77057004 -0.9681741 -0.25237975
0.36421603 -0.3846118 0.3068019 0.29134297 0.20664576 -0.485534 -0.37231782 0.09672334
0.7187129 -0.44501898 -0.2884692 -0.065362826 0.6376381 -0.69766736 -0.1786125 -0.5594891
0.35651797 -0.23249 -0.9231641 -0.061743475 0.22567654 -0.09883749 0.49221262 0.06355806
0.043659464 -0.26691687 1.2642877 0.15477197 -0.11234132 -0.19142921 1.1703285 0.52459663
-0.47507206 -0.20857233 -1.276623 0.668306 -0.06702836 0.074738294 -0.42753288 0.252386
-0.35963982 -0.883311 0.102927215 0.9025133 -0.3489136 0.03853115 -0.42173296 -0.15260197
-0.19670598 -0.40520164 -0.31288147 -1.6963502 -0.455412 -1.3204097 0.8010525 1.1280742
0.5941183 1.0382634 0.22251374 0.5008833 0.28961536 0.053646848 0.51713234 -0.088177934
0.77591443 -0.5729437 0.44193518 -0.022340283 0.31672466 0.9750362 -0.006031457 1.5805317
-0.32988372 -0.75148475 0.046439644 0.76821154 -0.14509957 -0.33904636 0.41542864 0.38668266
0.525286 -1.2455649 -0.5657666 -1.1603888 0.111274056 -1.6081387 0.42471415 0.0054783938
0.04718829 0.9061778 0.4948986 -0.26813328 0.24362092 -0.6276244 -0.028387066 0.19817932
0.34687975 -0.021624807 -0.15973966 0.04737961 -0.029510505 -0.26307085 -0.03178324 1.3926865
0.72542524 0.6878006 -0.23766324 -0.45208287 0.26275057 0.57452804 0.18981665 -0.78278995
-0.14356221 -0.14909446 -0.6757412 0.018759642 0.11094406 -0.2144087 -0.15418662 -0.5545938
0.6284508 0.6345178 0.02185794 -0.11297321 0.12566409 1.0561143 0.20408268 -0.24820793
-0.7606653 -0.64448994 -0.011002096 0.27579775 -0.5830265 0.2007946 0.5655334 0.15605912
0.2543976 -0.56364566 -0.034732446 0.63590217 -0.009391684 0.18288672 0.5124705 0.5819164
0.07419901 -0.5073873 -0.7897253 -1.0008742 -1.007007 -0.36935923 -0.17536326 0.5067204
0.6659935 0.94584507 0.43979836 0.23554432 -0.45099136 -0.773941 1.1502368 -0.28971642
0.1308417 -1.1156511 -0.9427258 0.23445024 0.39421728 0.2611759 -0.027673742 0.57816225
-0.026533773 0.27117884 0.7273172 -0.09374648 -0.098082274 -0.18189095 -0.35081175 -0.24572091
-0.060274985 0.026795056 -0.18192168 0.19567409 -0.12104578 0.049674623 0.018509895 0.053319458
0.53277576 -0.14809081 -0.27049688 0.39014342 -0.17833738 0.41299772 0.90512615 -0.35239866
-0.61935246 0.09836041 -0.66304356 -0.71754014 -0.06211396 0.9043056 0.9177078 0.16333492
-0.1364541 -0.1020825 1.2852457 0.31875566 -0.060777284 -0.5360214 -0.55291724 0.4974044
-0.53471214 -0.11171268 -1.5111109 -0.78590304 -0.31248602 -1.4765991 -0.12141141 -1.0097659
0.527299 -0.9907294 -0.44541043 0.27041325 -0.5126069 0.95532453 0.83350736 0.16460522
-0.05397265 -0.6569571 -0.8515939 -1.7072676 0.37653267 -0.5918704 1.5235918 0.16405448
